model_cnn.pth (torch, 435107 bytes, 8 tensors)

conv1.weight f4 [6, 3, 5, 5]
00000000: 50a0 cdbd fb45 ab3d 2ed9 bebd b896 203c
00000010: d5ba f63d 7aa6 93bc 2bef 1a3e 0397 80bc
00000020: 48cb b7bd 390c ef3c a78e da3d 36cf 2d3e
00000030: b11e 5dbd 0abc e9bd 1572 12be 3a6f 183e
00000040: 73da d63d 32cc 363d 386e 8abc 1594 e2bd
00000050: d9f4 bb3c 4d3b ea3d 8477 13bd 34bc 67bd
00000060: ea86 b03d 72bf 79bd b523 72bd d36f ad3d
00000070: fd1e 1cbc ad53 debd 5da1 643d 4c8d db3d
00000080: e782 ed3c 56fa 2ebd b4d4 f9bd ce8a 6a3c
00000090: 238c d33d b5cd 52bd d97d 31be a434 d4bd
000000a0: 8227 4b3d c32b e93c 4a36 423d 45f3 15be
000000b0: d78b 78bb 45eb 7cbc c49a 98bd 2cd1 00bd
000000c0: a9e8 bd3c 8651 0ebe c821 1c3e 2b00 c63c
000000d0: c90b 8f3d af1e 873c 27a0 0dbe 3812 563e
000000e0: 4ccb f13c 63fd 8c3d 0942 20be ca57 76be
000000f0: 2748 623e 716d 3d3e 3bf7 b33d cf43 10be
00000100: dfe2 27be d7fd 213e b06c 033e 44bc 45bd
00000110: ebbf 45be 3872 52be acc4 a03d ba0a 803d
00000120: 9987 6c3d 6a48 15bd 7e4a b5bc 2ec1 7b3b
00000130: ba93 e93c b725 883d 984f 82bc 612e dd3c
00000140: bf64 3abe 1156 233e 6523 b4bd b866 18be
00000150: 72ae 30bc aa76 2ebe d035 883e 7aa7 0a3e
00000160: 8842 a7be 02d2 533d e618 c2bc f893 ad3c
00000170: 9ec1 163e 3306 15be 2eee e13a f8e1 8b3d
00000180: 8731 bbbd 325e 493d c6d7 98bd 2b91 f73c
00000190: a6df 003a 7399 023e 7e5d 30bc bb34 c7bd
000001a0: cd37 7a3d cfb1 37be 9c46 3f3e 7537 163e
000001b0: 5bb8 74bd 297c 07bd 6cfb 81bd 27c9 a03e
000001c0: dfb2 c83a 658d 8cbe d8c9 823c 29a5 bbbc
000001d0: 37c7 673e 54ec e5bc d143 14be eba7 c73c
000001e0: 6251 83bd ab42 ad3d d9a5 233d f286 30be
000001f0: cf55 db3d aa18 8abd 5d37 7f3d 1fff bfbd
00000200: 21fb 8dbd db33 913c d121 25be b30d a63c
00000210: bfbf da3d 9fc8 bfbd 695d 303d 25c7 70be
00000220: 4639 813e 9e88 b4bc de6b 93be f443 673e
00000230: 55ca 11be d155 3a3e 753d ca3d fc7d 3cbe
00000240: 017a ff3d fbc2 05bd 137f 053d 346a 163e
00000250: 7d88 95bd 637a 643d d25a c1bd 5668 4dbd
00000260: 48e5 c3bd 2a13 6cbc 60fc c63c ce6a 37bd
00000270: a031 f2bd ae3a 65be d346 18be ad19 a6bd
00000280: a705 ab3d 5f57 acbd 38fb 00bd 8629 ebbd
00000290: 5afa f9bd c932 7f3d 3ca0 e83d 5434 263b
000002a0: b442 1e3e f819 b43d bf41 023d f0be 753e
000002b0: d983 713e a8eb 153d 505e d83d ae6f 9a3d
000002c0: 12bc 863d 36c6 403c b387 5cbd e52b 033e
000002d0: aef3 8a3c 729b 14be 760e e5bd 14be 48bd
000002e0: 3f42 11bd 461a 18bd d3ed c2bd 78aa 2abe
000002f0: 2f11 d5bd e087 14be adcd 84bd f5f3 303e
00000300: 2d44 113e ba61 803c 1afb 8c3c 6866 85bd
00000310: 31aa 3eba 96e2 263e 943b ff3d 3400 8fbc
00000320: 812c 063d 0c87 c23c 6507 e2bd f93c 36bd
00000330: e466 f73c 9944 d0bc e002 cebd 3f8d bcbd
00000340: 6597 23bd 9e59 853d 8d7d 8d3d a562 86bc
00000350: 0495 a0bd 878a 09be 3a72 a1bd eece aebc
00000360: 9edd 173c 7a39 123e 6f56 e23b 7c7c 47bd
00000370: 3e9c fc3c 4db8 ff3d de10 9d3d 06f2 2f3e
00000380: ec47 d33d aa3b e43c d241 d93d 3e12 1c3e
00000390: a266 103e be23 dbbc 9c11 063e 4ec2 013e
000003a0: 4784 443e db37 403e eed4 2a3e 9a43 113e
000003b0: eb50 2f3e 79b8 313d c839 b53d 9174 27bd
000003c0: d5bf f83c e264 943d 26e2 b7bd 5cb8 13bc
000003d0: d8e0 2bbd d2d2 2abe 9822 8fbd b310 b1bd
000003e0: 8c40 1dbe 0b5f c0bd 04d5 7dbd 371a 8c3c
000003f0: 0c86 a3bd 5205 313c 870d 85bd d6af 83be
-0.10040343 0.08362957 -0.093187675 0.009801559 0.12047354 -0.018023718 0.15130298 -0.015697008
-0.0897432 0.029180633 0.1067174 0.16973576 -0.053984348 -0.11412819 -0.14301331 0.1488618
0.10490885 0.04462833 -0.01689826 -0.11063401 0.0229439 0.11437092 -0.03600265 -0.05657597
0.08619483 -0.060973592 -0.059116084 0.084685944 -0.009528873 -0.10855804 0.05581795 0.107203096
0.028993083 -0.042719208 -0.12198773 0.01431532 0.10329463 -0.05146571 -0.17333163 -0.10361603
0.049598224 0.02846325 0.047415055 -0.14643581 -0.0037925148 -0.015436952 -0.07451394 -0.03144948
0.02318223 -0.13898286 0.15247262 0.024170002 0.0698467 0.016494123 -0.13830625 0.20905387
0.029515885 0.06884267 -0.1565019 -0.24056926 0.22097836 0.1849878 0.0878739 -0.14088367
-0.16395138 0.15819488 0.1283443 -0.048275247 -0.19311492 -0.20551383 0.07850012 0.06252046
0.057746504 -0.036446013 -0.022130247 0.0038414705 0.028512824 0.066478185 -0.015907094 0.026999654
-0.18202494 0.159508 -0.087958135 -0.14882934 -0.0107837785 -0.17037454 0.26603556 0.1354045
-0.32667947 0.05171395 -0.023693513 0.021188721 0.14722297 -0.14553146 0.0017237121 0.068302095
-0.09140306 0.049162097 -0.074630305 0.030220589 0.0004916139 0.12753849 -0.010764478 -0.097268544
0.061088372 -0.17938922 0.18679279 0.14669593 -0.059746128 -0.033077393 -0.06346783 0.31403467
0.0015312097 -0.27451625 0.015965387 -0.022905903 0.22634588 -0.028066792 -0.14478995 0.024372062
-0.06412007 0.084599815 0.039953087 -0.17238978 0.10709726 -0.067429855 0.062308658 -0.09374832
-0.06932665 0.017724922 -0.16126181 0.020270204 0.10681104 -0.09364437 0.043057833 -0.23513468
0.2523901 -0.0220378 -0.28793234 0.22584516 -0.1423734 0.18196799 0.09875003 -0.18407434
0.12474442 -0.03265665 0.03259189 0.14688951 -0.07301424 0.05578078 -0.09441151 -0.05014833
-0.09565216 -0.014408866 0.024290264 -0.04477959 -0.118258715 -0.22385666 -0.14870767 -0.08110366
0.083506875 -0.08415102 -0.03148958 -0.11482529 -0.12205954 0.062304292 0.11358687 0.002536078
0.15455133 0.08794016 0.03180098 0.23998618 0.23585452 0.036601692 0.10564864 0.075408325
0.0657884 0.011766007 -0.05384035 0.12809713 0.016961899 -0.14512423 -0.11184399 -0.049009398
-0.035463568 -0.03713443 -0.095180176 -0.16666591 -0.10403668 -0.14504957 -0.06484542 0.17280562
0.14186163 0.0156716 0.017209578 -0.06513673 -0.00072732853 0.16297373 0.124625355 -0.017456152
0.032757286 0.023746036 -0.11036567 -0.04449174 0.03020043 -0.025423335 -0.10059142 -0.09206628
-0.039939303 0.06511234 0.069087125 -0.01640446 -0.078409225 -0.1343175 -0.07883115 -0.021338906
0.009269146 0.14279738 0.0069072763 -0.048702702 0.03083622 0.124863245 0.07669233 0.17182168
0.103164524 0.027860481 0.10608257 0.15241334 0.14101651 -0.026750442 0.13092655 0.12671778
0.19191085 0.18771307 0.16682789 0.14185944 0.17120712 0.043388817 0.088489115 -0.04088265
0.03036491 0.07245804 -0.08978681 -0.009016123 -0.041962475 -0.16681984 -0.0698902 -0.08645763
-0.15356654 -0.09393128 -0.061970726 0.017102344 -0.07984552 0.010804491 -0.06496721 -0.2572009

conv1.bias f4 [6]
00000000: acea c7bc 64a3 a73c 3675 54bd 9322 563e
00000010: 464f c73c e80f 3abb
-0.024403892 0.020463653 -0.051869594 0.20911627 0.024329793 -0.0028390829

conv2.weight f4 [16, 6, 5, 5]
00000000: a351 7dbe efc7 7cbd f836 84bb c667 893d
00000010: acd6 923c 426b f9bd 5e1c 08be 2ee7 f43b
00000020: ba95 7e3c 2c3f b83d 8c05 b43c df2b ddbd
00000030: fa89 d1bd 6d7d 0dbd 7bde 763d 1ad4 b03d
00000040: acd0 a0bd 3dd3 18be 150d d23c 82e9 9ebd
00000050: 29c5 3e3e 6ce0 023d 42f3 b0bd 02a5 17be
00000060: e10c 2fbe aaee 19be 1958 51be c5e3 27be
00000070: 6484 5dbb 229e ac3a 04f2 1e3b c130 b5bd
00000080: 85bb fdbd e3f4 88bd 9c74 153c 9b69 043e
00000090: 60dc 033e 960b ac3d d8ae eb3d 574b a83d
000000a0: 1153 e63d 7923 3f3e 1341 383e 15b2 353e
000000b0: a82c 223e 6d53 d03b c26d b63a e798 4abd
000000c0: 2354 be3c d380 95bd 2634 73bc e99b ff3c
000000d0: a593 9dbc 44b2 533c 5c22 6c3b a426 60bd
000000e0: 1fac 92bd a657 d6bd 8fc3 76be 17a0 4fbe
000000f0: 12ed 8b3d 5e22 cbbd e6c8 533c fdb9 50be
00000100: a50d 7ebe 6d93 c83d 7bf3 e7bd 19f8 fabd
00000110: cba2 c2bd dc0d 54be 0c0a e43d 3015 243e
00000120: 185f 103e 7ed5 a9bb cabf 1a3d 40ce 563e
00000130: 553a 223e 2843 9e3d 67d0 293e e9db 793e
00000140: b1c2 1a3e 4202 283e ceb9 5b3d e0c6 4d3e
00000150: 7db7 843e c365 3cbc f87c c63d a7f5 363d
00000160: 93e3 463e 5d01 ff3d 3ce6 92be e310 14bd
00000170: 4f5d 5f3d 0b0a 7a3e eb79 023e 2335 03bf
00000180: 8ba6 7abe 9edc 03be c0b3 8d3d b8ec ec3d
00000190: cddd ae3b 784e 393c d9c9 6d3d bfc3 c43b
000001a0: 12dc 9c3d e645 83bd 6608 333d bb49 05bc
000001b0: 14a9 0f3d 5b0e 3b3b ca4d 93bd c00c 40bd
000001c0: 96a4 8b3d 1fee 11bd 65c8 3d3d ea3f 02be
000001d0: a721 503d d3cb e43c f14e 80bb 7100 5e3d
000001e0: cd9f c0bd 9a0b adbd edbd 733d 2297 24bd
000001f0: adfd 263e 86d1 863d c6ab 2a3d 497c 23bd
00000200: b64b 2cbd 0dc9 56bd c80a 893d 2695 563c
00000210: f33a a23d 6dc2 6ebd 710f dbbd b090 cf3c
00000220: 89c1 6b3c 22d3 003e ab57 cc3d 0ffc 6bbd
00000230: 7a56 41be 68bb 7ebd c72c e23d a872 873e
00000240: 5a69 443e 16c3 7cbd 3c4b 23be a2f1 e1bc
00000250: 6039 063e 6328 553e c1f3 cc3d 935b e33d
00000260: 5ac2 0d3e 7881 063e b65e cb3d d3b8 4e3e
00000270: 527b 833d 08c8 7abb 1bb1 6ebd 36ec b23c
00000280: 42a4 4c3d ac02 5f3e 7c40 f13d 58d9 25bc
00000290: d215 d23b e196 bdbd b08c 4c3c 6115 f03d
000002a0: 82e5 023d b4e8 ea3b 1fab 6cbe 755a 62be
000002b0: c9fd 77bd 9c20 b13d c199 3a3d 39dd b7bd
000002c0: bc6b 30be 2d06 62be 2d50 a1be 5102 40be
000002d0: 49c1 043d 577d d4bd a827 9ebe e199 98be
000002e0: eec3 7abe d679 a53d f60d 903c 0f58 15be
000002f0: a562 3dbe e260 e5bc 086a 9cbc 70a2 9a3d
00000300: aa19 083c cf93 2bbd 4ea8 0b3c b03f 893d
00000310: cf69 0b3d 12c5 dd3c 5ad7 eabc 7cf7 a9bd
00000320: e1f1 9fbb 7495 10be 2807 9bbd a1a8 5cbd
00000330: e449 aa3d fe73 833d ffeb 173d 521c 0fbe
00000340: 52b2 a3bc f99f adbd e2e6 76bd f190 b73d
00000350: 81d0 0d3e e1e0 a63d 399f 90bd 6bfd 08be
00000360: 8b90 d53d 3f90 3c3e 2e82 e53b 4027 84bd
00000370: 388a 4dbd 55c9 84bc 6dea 903c 2fc0 aa3d
00000380: fc26 913d 642a ae3b 9983 cd3c 3fc0 45bd
00000390: ec36 fdbd 4b24 60bd 903d 3ebe 577d 0ebe
000003a0: 1f7b 5bbe 6671 82be 3ee3 bdbd d3b8 87be
000003b0: 0095 06bb 5a37 873d b733 b33d d7b3 38bc
000003c0: ca35 82bc 79f2 3dbd c11c c8bd 207e 55be
000003d0: fa10 12be 5d42 b7bd bf79 063d cb76 6abe
000003e0: cb6e 8bbe 6c6d 6ebe f705 4d3d 6f28 743d
000003f0: c530 083e 5d92 aa3d 58fc 503d e564 4cbc
-0.24738173 -0.06171411 -0.004034873 0.06709246 0.01792463 -0.12178661 -0.13292071 0.007473848
0.015538627 0.08996424 0.021975301 -0.10799383 -0.10231395 -0.034543443 0.060270768 0.08634205
-0.07852301 -0.14924331 0.025641004 -0.07759382 0.18629898 0.031952307 -0.08640148 -0.14809039
-0.17094757 -0.1503245 -0.20443763 -0.16395481 -0.0033800835 0.0013169686 0.002425314 -0.0884719
-0.12389282 -0.066873334 0.00912204 0.1293091 0.12877035 0.08400647 0.11507958 0.08217495
0.112463124 0.18665875 0.17993574 0.17743714 0.15837348 0.0063576014 0.0013918208 -0.049462225
0.023233479 -0.07299962 -0.014843976 0.031202273 -0.019235441 0.01292092 0.0036031222 -0.05472435
-0.07161736 -0.10465936 -0.24098037 -0.20275913 0.06832327 -0.099186644 0.012926316 -0.20383449
-0.24809892 0.09793744 -0.11325737 -0.12254352 -0.095037065 -0.20708412 0.11134729 0.16023707
0.14098775 -0.005182921 0.03778056 0.20977116 0.15842564 0.07727653 0.16583405 0.24400295
0.15113331 0.16407111 0.053643994 0.20095396 0.2592124 -0.011498871 0.09691805 0.044667866
0.1942275 0.12451432 -0.2869128 -0.036148917 0.054532345 0.24417894 0.1274182 -0.51252955
-0.24477594 -0.12877128 0.0691905 0.11568588 0.0053364993 0.011310212 0.058053825 0.00600478
0.076591626 -0.064098164 0.04370918 -0.0081352545 0.035073355 0.0028542492 -0.071925715 -0.04688716
0.06818502 -0.03562748 0.04633369 -0.12719694 0.050813343 0.027929222 -0.0039156605 0.05419964
-0.094054796 -0.084494784 0.0595073 -0.040183194 0.16307707 0.06582932 0.041667722 -0.03991345
-0.04206439 -0.05243783 0.066915095 0.013097083 0.079214 -0.058290888 -0.106963046 0.025337547
0.014389404 0.12580541 0.09977659 -0.05761343 -0.18880644 -0.062190443 0.11043697 0.26454663
0.19180813 -0.061709486 -0.15946668 -0.02758104 0.13107824 0.20816188 0.1000743 0.11101451
0.1384367 0.13135326 0.09930174 0.20187692 0.06420006 -0.00382662 -0.05827437 0.02184115
0.049961336 0.21778363 0.117798775 -0.01012262 0.0064112926 -0.092572935 0.012484714 0.11722828
0.031957157 0.0071688537 -0.23112153 -0.22104819 -0.060544763 0.08648798 0.045556787 -0.08977742
-0.17228597 -0.22072668 -0.31506482 -0.18750884 0.032410894 -0.10375469 -0.3088963 -0.298049
-0.24488804 0.08079879 0.017584782 -0.14584373 -0.18494661 -0.028000299 -0.019093528 0.07550514
0.0083069 -0.041889008 0.008524014 0.067016006 0.034036454 0.02707151 -0.02866714 -0.08299157
-0.004881129 -0.14119512 -0.07569724 -0.053871755 0.08314875 0.06418608 0.037090298 -0.13975647
-0.01998249 -0.08477778 -0.06027878 0.08963192 0.13849069 0.08148361 -0.07061619 -0.13377921
0.1042796 0.184144 0.007004044 -0.06452799 -0.050180644 -0.016209284 0.017689908 0.08337437
0.07087514 0.005315112 0.025087165 -0.048279043 -0.12363991 -0.05472211 -0.18578172 -0.13915001
-0.21433686 -0.2547714 -0.09271859 -0.26508197 -0.0020535588 0.06602354 0.08750098 -0.011273346
-0.01589479 -0.046373818 -0.09771109 -0.20848894 -0.14264289 -0.08948205 0.03283095 -0.22896878
-0.27232966 -0.23283929 0.050054517 0.059608873 0.13299854 0.08328698 0.051021904 -0.012475227

conv2.bias f4 [16]
00000000: f806 38be dde3 8fbd bfe6 cd3d 79f6 daba
00000010: cde9 473e 39ed 76bd e851 03be 7950 35be
00000020: 3812 b9bd a1e4 b63d edad ad3d 5f09 e23e
00000030: f1fe d33e 28f3 893b 845c 87bd 2f4b 9abd
-0.17971408 -0.07025883 0.10053777 -0.0016705535 0.19522782 -0.060284827 -0.12824214 -0.17706479
-0.09036678 0.08930326 0.08480439 0.44147775 0.41405442 0.0042098947 -0.06609443 -0.075338714

fc1.weight f4 [256, 400]
00000000: d22b e1bc f2c8 2abd e0cf 0dbc c6b2 80bd
00000010: cb51 3dbd 64ee dfbb 7cf8 873c b1e1 54bd
00000020: a32c 593b bc30 6fbb 54ea 45bd a695 b0bc
00000030: 6b6d 4039 ace6 9abc 5236 94bd 055c 5abd
00000040: 12e0 31bd 2520 4dbd 472c d63c 409b 3ebc
00000050: 3ec4 623c 9e7e b63c ea80 6bbc df96 6fbd
00000060: 21e7 adbc 0f6a f7bc 1571 70bd 842c 5abd
00000070: 35ed b93c 6354 48bd 0423 ac3c 675f bf3c
00000080: fc55 d7bc cc34 1bbd 3b8b bdbb a3bb 333c
00000090: 32bb 4bbd 817a 36bd f3f8 de3c 91b9 30bd
000000a0: fb72 5ebd 2c48 ef3c ca51 25bd e3d2 913c
000000b0: b041 7b3c 7070 01bd 551c fcbc 8a10 2cbd
000000c0: 22f7 55bc 87f4 c4bc 68b4 c13b c0ec 103c
000000d0: 15a2 793c 1c1b 46bd e371 febc 4582 28bd
000000e0: a441 883b 9ded 14bd bf46 5a3c f4ab 51bd
000000f0: a31d 67bb 39c5 2abd bdd7 c6bc 4e25 c73b
00000100: fcf2 faba 2d4c dabc b57d 3abd e7f2 11bd
00000110: 71ec 9d3c a610 ab3c dfe7 28bd 7624 81bd
00000120: 1db2 12bd 0864 3ebd 1b71 1c3d 6984 b4bc
00000130: b840 d53c 8c7f d33c 4fee 45bd feeb 54bc
00000140: 3a70 59bc 1f5f d23c 2491 03bc 5ae6 34bd
00000150: f565 26bd 4eb8 b63c 6cc7 3cbd 8be4 bf3c
00000160: c20f 69bb c206 e0bc 550f 99bc 088a 663c
00000170: 1cce 8d3c 4b15 6c3c 5a5e 3fbc 6e3e 95bc
00000180: 4dc2 e7bc e937 ecbb ab78 8dbd 522b 8fbb
00000190: 8ef6 73bb 3675 83bc ee6e 7ebd 6728 36bc
000001a0: da07 33bd dd87 06bd 386c 39bd fbdf 2fbd
000001b0: 031f 0dbd 8ab9 e1bc 51f6 143d 59da 1cbc
000001c0: 1bc6 c53b 41ed 653c f788 043d 04d3 4bbd
000001d0: 088e 25bd e9ae 3dbc 6a0f 32bd 0c59 1a3c
000001e0: f66a f33c 21d3 13bd 3417 01bd b75a 5fbc
000001f0: 7460 e6ba eac0 29bd c5bd 16bd 2764 75bc
00000200: 80dd 4a3b 00f2 8cbb 934c b7bc 336d aa3b
00000210: c371 b2bc f3d0 b83b 4a99 fbbc 275e 17bc
00000220: 00ae 33bd 5b24 093d 9db6 36bd 2a2c e0bc
00000230: 00bb a43b 80cb b23b b333 1bbc 75b3 1ebd
00000240: 5794 df3c e74b d1bb 134d 4bbc c028 0a3d
00000250: 65f9 453d 7321 87bc eaab 0e3c 97f9 3b3c
00000260: 96dc a13c 4b05 57bd ec66 71bd 9fdb 7e3a
00000270: ddb6 043d 58de 43bd e49e 11bc 5e42 49bd
00000280: 58d3 173c 87b6 85bc dd3b 623d ff1b 29bd
00000290: 74cd d6bc 4ee2 ecb9 b599 5cbd 6f06 25bb
000002a0: f37a 9c3c 3670 e03b 696c 5a3d 650a c5bc
000002b0: 186e c9bc e6f2 f3bb 38db 003c 5a33 943c
000002c0: 3ba1 19bd 1a2f 84bd 2003 6fbd 3404 ae3c
000002d0: 97d5 a6bc 1282 3ebd 5fa7 d63c f153 c93c
000002e0: 4bcc a53c 92e5 c43c 2980 f43c c2fb ae3c
000002f0: 2d53 af3c e6de 2bbc 8582 f9bc 88b6 33bd
00000300: b73b 29bd d679 80bd 5602 0abd 9be3 2abd
00000310: 3d27 1dbd 3a47 6cbd 8c29 fe3c 494c 7a3b
00000320: ec42 74bd e95e 123c 064a a0bc dd47 a23c
00000330: ed0c 02bd 4ec0 953c aaae be3b e4a0 71bd
00000340: eab6 bbbc d1a5 d1bb 84d7 f03b 63e3 d9bc
00000350: 5db4 29bd 1fbb 39bd 11f7 6e3b 0d60 b63c
00000360: 9341 d53c 3aa0 d8bc 65a2 8e3c fe91 cbbc
00000370: 2222 2bbd 365c b9bc 1bf1 763c 9e36 c9bc
00000380: e4e8 28bc 09cd 8dbd f2e6 55bd 0a06 6abd
00000390: fb1f 03bc fbec 783c 6c9f 60bd 91e2 15bd
000003a0: 72e3 813c dbeb b4bb adf5 63bd a542 7ebd
000003b0: 970e 66bd 516a 5c3c da4a b53c c72e 97bc
000003c0: 9365 87bd d980 f73c 7516 5c3c 50e1 30bd
000003d0: d542 02bd a453 61bc eafa 83bd 4f57 8ebd
000003e0: aee6 dcba 5bc5 d1bc 6d1c 5fbd 4cfa c63c
000003f0: 9d47 58bd 09a9 59bd e5a3 02bd ded6 973b
-0.027486715 -0.041695543 -0.008655518 -0.06284098 -0.046220582 -0.0068338383 0.016597979 -0.05197305
0.0033138178 -0.0036497554 -0.048319176 -0.021555733 0.00018351308 -0.018908821 -0.07236923 -0.053310413
-0.04342658 -0.050079484 0.02614416 -0.011633694 0.013840733 0.022277173 -0.014373997 -0.05849349
-0.021228375 -0.03020194 -0.058701593 -0.05326511 0.022696117 -0.048908602 0.02101279 0.023360921
-0.026286118 -0.037892148 -0.00578442 0.010970029 -0.04973907 -0.044550423 0.027218318 -0.04314572
-0.054308873 0.029209219 -0.040361203 0.017800754 0.015335485 -0.03160137 -0.030775229 -0.04200796
-0.013059409 -0.024042381 0.0059113987 0.008845508 0.015236397 -0.048365697 -0.031060165 -0.04113986
0.0041582156 -0.03635942 0.013322531 -0.051189378 -0.0035265468 -0.041691992 -0.024272794 0.006077445
-0.0019145901 -0.026647652 -0.04553004 -0.03563204 0.019277783 0.020881962 -0.041236755 -0.063057825
-0.035814393 -0.046482116 0.038193803 -0.022035794 0.026031837 0.025817655 -0.048322972 -0.012995718
-0.013271386 0.025680123 -0.00803021 -0.044164993 -0.040624578 0.02230468 -0.04608862 0.023424407
-0.003556237 -0.027346972 -0.018684069 0.014070995 0.017310195 0.0144093735 -0.01168021 -0.018218245
-0.028290892 -0.0072088134 -0.06907781 -0.004369178 -0.0037225815 -0.016047101 -0.06211751 -0.011118031
-0.04370866 -0.032844413 -0.04526922 -0.042938214 -0.034453403 -0.027554292 0.036367718 -0.0095735425
0.006035579 0.0140336165 0.032357182 -0.049761787 -0.040418655 -0.011577346 -0.04347173 0.0094206445
0.029714089 -0.03609002 -0.03151627 -0.013632468 -0.0017576353 -0.041443743 -0.036802072 -0.014977491
0.0030954778 -0.0043013096 -0.02237538 0.005201006 -0.021782761 0.005640143 -0.030712742 -0.009238756
-0.04386711 0.033481937 -0.044607747 -0.027364809 0.005027175 0.005456388 -0.009472775 -0.038745362
0.027292414 -0.006387222 -0.012408513 0.03373027 0.048333544 -0.016495442 0.00870798 0.011473081
0.019758504 -0.052495282 -0.058936045 0.0009722057 0.032400955 -0.047819465 -0.00888798 -0.04913556
0.009266697 -0.016322387 0.05523287 -0.041286465 -0.026221015 -0.00045182038 -0.053857524 -0.0025180837
0.019101596 0.006849314 0.053326044 -0.024052808 -0.02458863 -0.0074447272 0.007864766 0.018090893
-0.037507277 -0.064542964 -0.05835259 0.021242239 -0.02036552 -0.046510763 0.026202856 0.02457616
0.020239016 0.024035249 0.029846268 0.021360282 0.021401966 -0.010490155 -0.030457744 -0.043875247
-0.041316714 -0.06273238 -0.033693634 -0.041720968 -0.0383675 -0.057685114 0.03102567 0.0038192442
-0.059634134 0.008933761 -0.019566547 0.019809658 -0.03175061 0.018280175 0.0058191614 -0.058991328
-0.022914369 -0.0063979407 0.00734991 -0.026597684 -0.041431773 -0.04534447 0.003646318 0.022262597
0.026032245 -0.02644359 0.01741142 -0.024849888 -0.0417806 -0.022626977 0.015072132 -0.024562176
-0.010309432 -0.06923873 -0.0522222 -0.057134666 -0.00800323 0.015193219 -0.054839537 -0.036593024
0.015855525 -0.00552128 -0.055654217 -0.062075276 -0.056166258 0.013453082 0.022130419 -0.018454922
-0.066111706 0.030212807 0.013433089 -0.043183625 -0.031802017 -0.013752852 -0.064443424 -0.069502465
-0.0016853416 -0.025606802 -0.05447047 0.024289273 -0.05280267 -0.05313972 -0.031894583 0.0046337685

fc1.bias f4 [256]
00000000: fd25 6fbd 9c0e 29bd d48e e6bc 94f7 813b
00000010: 43bc 0abd f0b9 ecbc ff18 243e 58e3 26bd
00000020: 095b 81bd 3d90 4d3e 773e 023f 22e1 043b
00000030: 2cc4 3c3c d651 8fbd e2bb 8d3e 5104 b43b
00000040: 4850 f6bc 3479 513d 85b0 71bd eec6 7c3e
00000050: 0cb8 643c 456c 0abd 2afe 9dbc bb53 74bd
00000060: 209e 37bc 96c9 723e 2893 ae3d fa8c 74bc
00000070: f22a 3d3e a9f7 f9bd 4528 5cbe c282 a8bd
00000080: 92c6 10bd bcca 98bd 8f22 9f3e 68a8 ab3e
00000090: d374 52bd 9f7c 683c 3f6d 5b3e 0fb8 ac3e
000000a0: 748c 67bd a3f0 15bc 0816 95bb c6be f03b
000000b0: c65f 0cbd fcbc 273e ee2c 103f 9fdf b2bd
000000c0: d8a6 363e 3cff af3b 5192 c23e f0d4 a53e
000000d0: da7a 3a3e a045 5cbd b9fc 163d 8315 7b3c
000000e0: b9c2 93bd c7f7 92bd b29c abbd eb9b 67be
000000f0: 1fbb bfbc 3a15 a1bd 627c 1b3e 7a9e 3c3d
00000100: 3a8c 6abd 9b32 c73e e282 c5be 8c34 e93e
00000110: ad1c acbd 8761 81bd 82ba df3c a6eb eebc
00000120: 4fac 893e 4c2d 5f3e 6b30 7d3d c3a1 8dbd
00000130: a6ff 8fbd 03c1 81bd 5355 f0ba 3dd7 313c
00000140: bcd9 bb3e 041b b73b f83c 823d 5f6b ec3c
00000150: 2ef5 e03e 07bf 963e 923f 4cbb b048 723e
00000160: 3676 663e 5201 cf3e 9e69 ebbc c841 15bd
00000170: b656 3e3d 1889 8f3e b9df 8abc 81d9 5cbd
00000180: 0b4a db3d a059 a9bd 9397 c63c f44c ca3e
00000190: 2022 183e 23b0 163f b5d4 4abd 3e95 ce3d
000001a0: dc0e 093d 2057 50bc 34b9 133e 085d b83d
000001b0: 9674 5bbe 949d 3e3a 143b 9bbd 4016 583e
000001c0: d20f bd3e fddf 2bbd 7b9a a33e 4c88 9f3c
000001d0: 0087 793e ed23 7d3e 5951 323e 8df4 22bd
000001e0: 698b b8bd c9ba 573e ba72 903e 661f a6bc
000001f0: cc86 afbc 5a12 093e 7837 69bd ee9c 313f
00000200: 8014 253e 7b41 8ebd 6e4d de3e dd1a 2d3e
00000210: 4fa7 b6bc 4daa d63d 53d2 7cbc 5146 833e
00000220: 3f35 52bd 6691 7cbe 965f 29be fa23 3d3e
00000230: 693c b53c 2262 b2bd e636 8b3e 004b c13e
00000240: cd3d a1bd c5da dcbb 7d10 9fbc 357c cd3e
00000250: 88f8 c3bd a22e c43e 8bd7 743c 8cf3 99b8
00000260: 618b 3a3e f3a6 983c 5fab 33bd 4873 85bd
00000270: f6b6 ad3d 3952 0d3f 19b0 903e 60dc edbd
00000280: 30bb b23d 97ba 77be 7de0 20bd a918 253e
00000290: 1407 3abd 84bd 7cbd b8e5 6b3c 4a8f cf3b
000002a0: eb10 66be 9b77 5fbd afa3 a43e 272e 78bd
000002b0: ac70 5d3e 40ce a13e ff1b f43a 1b7c 63bd
000002c0: 4b41 b5ba 7764 40be c9ad 10be cde5 fb3e
000002d0: c196 f33d dd70 7a3e 5b9d 0cbd fc4d b6be
000002e0: b3a4 05be ddad 70be b0f6 6cbd 3915 d3bc
000002f0: 629e 913d 5ba6 9e3e 81be f53b b93d cabd
00000300: a1f1 b2bd 8b87 173e dd7b 903d 8f85 49bd
00000310: 4366 013f d5f7 39bd 6791 17bd 5984 a63e
00000320: afd0 21bd fa81 8abd f113 33bd 27e8 813e
00000330: 9312 13bd 7539 b5bc 3afc 49be aebb a73e
00000340: 54d2 c03e ae28 913d 489f 243b 4ccf b93e
00000350: 557c 1d3f 69be f73d e862 8fbe 67b1 45be
00000360: 8a3b dfbd 2d57 9dbd b56f 56bd 1589 8b3e
00000370: 8d51 be3e 0426 4c3e 13ae ab3c fea8 01be
00000380: cde4 ebbc 7dcb 8b3e 680f 263e 617a cf3c
00000390: a5ee 0b3d 7e6a 6bbd 1f73 02be a5e2 8ebd
000003a0: e688 8a3d c4a1 4b3e ff36 b63e f994 07bd
000003b0: 5bc9 043e 03ec 9f3e 3b25 1d3e c6f0 eabd
000003c0: 481c 18be cd06 f0ba f7a8 1d3e 578a c83e
000003d0: 0a2b 293e ba8e 20bd f56b 41bd ba05 81be
000003e0: 0795 07bd ee8d 90bd 3838 a93e e3b0 44bd
000003f0: ee01 993e 9a24 43be 6859 323e 34c2 473e
-0.058385838 -0.0412737 -0.028144278 0.003966281 -0.033870947 -0.028897256 0.1602516 -0.040744156
-0.06316192 0.20074554 0.50876564 0.0020275791 0.01152138 -0.06998031 0.27682406 0.0054936786
-0.030067578 0.05114098 -0.059006233 0.2468526 0.013959896 -0.03379466 -0.019286234 -0.059650164
-0.0112071335 0.23709711 0.085241616 -0.01492619 0.18473414 -0.122054406 -0.21499737 -0.08228065
-0.03534562 -0.074605435 0.31081054 0.3352692 -0.051380944 0.014189868 0.21428393 0.33734176
-0.05653043 -0.009151611 -0.0045497455 0.0073469607 -0.034271024 0.16380686 0.5631856 -0.087340586
0.17837083 0.0053710025 0.38002256 0.3238902 0.18210927 -0.053777337 0.03686211 0.015324953
-0.07214875 -0.07176166 -0.08379497 -0.22618072 -0.023404656 -0.07865377 0.15184167 0.046049573
-0.057262637 0.38905796 -0.38576418 0.45547903 -0.08403907 -0.0631743 0.027310614 -0.0291651
0.26889274 0.21794623 0.061813753 -0.06915619 -0.07031183 -0.06335642 -0.0018335975 0.010854539
0.36689556 0.0055879373 0.06359285 0.028859792 0.43937057 0.29442617 -0.003116582 0.2366054
0.22506031 0.40430695 -0.028736886 -0.036439687 0.046469413 0.28034282 -0.016952382 -0.053918365
0.10707482 -0.08269048 0.024242198 0.39511836 0.14856768 0.58862513 -0.04951926 0.100870594
0.033461437 -0.012716085 0.14426118 0.09002119 -0.21431193 0.0007271406 -0.07579628 0.21102238
0.36926132 -0.04196166 0.31953797 0.019474171 0.24367905 0.24720736 0.17413844 -0.039784003
-0.090109654 0.21067347 0.2821253 -0.020278644 -0.02142658 0.13385907 -0.056937665 0.6938008
0.16121101 -0.06946083 0.4341845 0.16904779 -0.022296576 0.10481701 -0.015431005 0.25639585
-0.05132031 -0.2466484 -0.1654037 0.18470755 0.022123532 -0.087101236 0.27190322 0.37752533
-0.07873116 -0.0067399465 -0.019417042 0.40133825 -0.09568888 0.38316828 0.014943968 -7.340973e-05
0.18217231 0.018634295 -0.043864604 -0.06516129 0.08482163 0.55203587 0.28259352 -0.11614299
0.087271094 -0.24192272 -0.03927659 0.16122688 -0.045416906 -0.061704174 0.014398031 0.00633422
-0.22467391 -0.054557424 0.3215613 -0.06059089 0.21625012 0.3160267 0.0018624066 -0.055538278
-0.0013828663 -0.18788324 -0.14128794 0.49198762 0.118939884 0.24457116 -0.034329753 -0.35606372
-0.13051109 -0.23503824 -0.057852447 -0.025766956 0.07110287 0.30986294 0.0074995165 -0.09875054
-0.08737493 0.147978 0.07054875 -0.049199637 0.50546664 -0.045402367 -0.0370039 0.32522848
-0.039505657 -0.06763072 -0.04372019 0.2537243 -0.035906386 -0.022122124 -0.19725123 0.32760376
0.37660468 0.07087837 0.0025119353 0.36290967 0.6151784 0.12096865 -0.28005147 -0.19305955
-0.10900028 -0.07682643 -0.052352626 0.27253023 0.37171593 0.19936377 0.020957028 -0.12662122
-0.028795624 0.27303687 0.16216815 0.02532691 0.034163136 -0.057474606 -0.12739228 -0.06976823
0.067643926 0.19885927 0.35588834 -0.033101056 0.12967436 0.3123475 0.15346234 -0.11471705
-0.14854538 -0.0018312574 0.15396486 0.39168045 0.16520324 -0.039198615 -0.047222096 -0.25199682
-0.033101108 -0.07058321 0.33050704 -0.048020255 0.29884285 -0.19056931 0.17416918 0.19507676

fc2.weight f4 [10, 256]
00000000: 4dc5 f93b 30ea 48bd 65f8 a8bc 4b56 d03c
00000010: 8ba7 973d 0d1f f13c 9c91 34be a8cf 9fbc
00000020: 131d 85be 31ef a43d dfc3 8cbd 8dbf a03d
00000030: 6d60 c03d c255 fb3b c494 393e 94b2 96bc
00000040: a39b 423c aa7f c53d 265e 91bc 8c03 d23d
00000050: dc90 633c 912e 793c c0db cd3c 2af4 8c3d
00000060: 90e9 32bd b0b5 88be 7380 14bc 6048 693c
00000070: f60a 2cbe 13ab 16be d95d 123e af2a 1a3d
00000080: b87f f7bc d46b 7bbd 70dd 47bd d32e 21be
00000090: 5165 5cbd 99ee fe3d fcbf 993d 644f 26be
000000a0: 0028 c7bb 1484 283e f759 7dbd 6bb9 1cbd
000000b0: 7792 ef3c f83e f53d b55f 19be b6c2 7e3d
000000c0: cbd7 08be a99f 2fbc 4e2d 903d e729 aebd
000000d0: b39a 8ebe 1cbb 543d 0d88 2dbe 1a8d 103e
000000e0: 0b58 61bd 563a f9bc 9803 f9ba 834c f83d
000000f0: ff5c d8bc 5980 70bd a5d1 6ebe 9dd3 183e
00000100: 28e5 b93c b52f e63d 4986 123e 0920 173e
00000110: 840c 153c 187c 273c f11a 133e 1663 a6bd
00000120: 5ccd 063e b7b6 323e 83d9 d9be 4618 b23c
00000130: 1ce8 2cbd 9167 133e 8d7c 883b bc15 c23c
00000140: 51d7 58be 33ce 9cbc 0d3b 4cbe 71db 123e
00000150: 6226 11be 2c49 193e b059 aa3d e828 c43d
00000160: ac61 7fbd c84d 75be 9803 28bd 842a eabb
00000170: bb8a 673d 1b85 1f3c 7630 18bc b7e2 cd3c
00000180: a92d 3ebe 754d 14bd 934e 59be e339 1bbe
00000190: 5324 3e3e 1de6 f4be 94ba 85bd 5521 dfbd
000001a0: 0340 47be aa23 293e 9548 a93d 4f6a 163d
000001b0: b667 793c 7a91 04be 60f0 0e39 5688 c93d
000001c0: a112 ff3d 9454 83bd 6f21 573d d988 57bc
000001d0: f1a6 45bd 8503 2bbe 0fba 42be 23d9 6dbb
000001e0: 8b93 253d a2d8 5e3e e1f2 02be 26c1 08bd
000001f0: b936 383d 1a7f 5a3d b5c5 d3bc d39a 75be
00000200: a90e 83be ddf1 a03c 0c05 54be 840d 4fbe
00000210: b68f 263d 7617 73bc e007 943d d038 e53d
00000220: 417a 30bd 9cf1 583d 77b5 a83d d2fc 72bd
00000230: 0d49 7cbb 36ea 3bbe 8be5 4dbe 9b58 81bd
00000240: 0ab5 c33b 2600 bfbc 2605 103d 4aa0 46be
00000250: 93a6 ce3d 3506 b6bd 82a4 0a3e 2b1c acbc
00000260: a3a7 053d 10ba dd3d d47d 6d3c 577f 82bd
00000270: 778e d33d e8a1 9abe 07af c13d 002e c83d
00000280: c815 923c 813a bd3d a2cc 9e3d d8ac edbd
00000290: dd78 86bd 7f7d 1fbd c0c6 1e3d db45 a53d
000002a0: 4e69 c93d ce6a 923c 9c19 4d3d cf12 bb3c
000002b0: e068 6cbe 8923 7dbe a726 8d3c 80a3 26ba
000002c0: 9bc5 923b ead7 5f3e 8dae de3d 2ab4 89be
000002d0: 1db8 93bc 4dec 073d 8ada 75bd 84c6 d13d
000002e0: fb1d 023e 242d bf3d 6ea5 403d 9915 aa3c
000002f0: fd08 42bc 13d0 59bd 1fc1 1e3d 7048 123d
00000300: 2bfb 52be cd97 c1bd 38a9 a83c f375 8cbd
00000310: 8f64 70be 7978 7bbd 6c24 443c 0e55 84bd
00000320: adf0 6abd 2aad fdbc d15d 6abd 6717 89bd
00000330: fc66 023d 1122 bbbd 37ef 403d 7001 193d
00000340: 4db6 9b3d 0206 aa3d 8919 02bd 1a19 d3bd
00000350: abc5 8bbe c4bb 55bd 79e1 5b3e 35f9 b73c
00000360: 85f5 693d bd05 85bc da95 d3bc 2b05 a3be
00000370: 1a78 c7be 4069 d6bd b232 26be 3c95 48bc
00000380: 34cc 6f3c cff6 04be a698 00be c1f3 8e3d
00000390: 432a 043e 9bd5 b9bd 1271 83bc 265e 743b
000003a0: f5ef 0a3d 3d83 033d 789b d8bc 7ff5 5dbd
000003b0: b69f b23d 4e7f cf3d b305 ccbb 52c9 ec3d
000003c0: aa68 91bc a8a2 b73d 9555 b93d f837 aabe
000003d0: 59ad b43d 8868 47bd a580 99bc f1ce ab3d
000003e0: eb43 20bd 8cc5 e43c 68d0 e0bc b3be a4bb
000003f0: e5e4 97be a4ef 29bd c177 f73c afae 4fbc
0.007622397 -0.049051464 -0.020626256 0.025431773 0.07405003 0.029433751 -0.1763367 -0.019508198
-0.25998744 0.08053435 -0.06873297 0.078490354 0.09393392 0.0076701352 0.18123156 -0.0183957
0.011877927 0.096434906 -0.017745089 0.10254583 0.013889518 0.015208856 0.025129199 0.06882508
-0.043679774 -0.26701117 -0.009063828 0.014238447 -0.16801056 -0.14713697 0.14293613 0.037638362
-0.030212268 -0.06138213 -0.048795164 -0.15740518 -0.05380756 0.12447853 0.07507321 -0.16241223
-0.0060777664 0.16456634 -0.061853375 -0.038262766 0.029244645 0.11974901 -0.14977916 0.06219741
-0.13363568 -0.010719218 0.07039891 -0.08504086 -0.278524 0.051936254 -0.1694643 0.14116326
-0.055015605 -0.030423325 -0.0018998263 0.121239685 -0.026411531 -0.058716152 -0.2332216 0.14924474
0.022692278 0.11239568 0.14309038 0.14758314 0.009097222 0.010222457 0.14365746 -0.08124368
0.13164276 0.17452513 -0.4254876 0.02174009 -0.042213544 0.14394976 0.0041652382 0.023692004
-0.21175887 -0.019141292 -0.19944401 0.14341523 -0.14174798 0.14969319 0.08317888 0.09578115
-0.062349007 -0.23955452 -0.041019052 -0.0071461815 0.056528788 0.009736325 -0.009288898 0.02513252
-0.18572105 -0.03620668 -0.2122138 -0.15158801 0.18568544 -0.47831813 -0.065297276 -0.108950295
-0.19458012 0.16517511 0.08265797 0.036722478 0.0152224805 -0.1294612 0.00013631722 0.09840457
0.12454725 -0.06412616 0.05252212 -0.013155186 -0.04825491 -0.16700561 -0.19016288 -0.0036292754
0.04042391 0.21762326 -0.12787963 -0.033387326 0.044974063 0.05334387 -0.02585111 -0.23984842
-0.25597122 0.01964658 -0.2070505 -0.2022 0.040664397 -0.0148371365 0.072280645 0.11192477
-0.04308534 0.05296479 0.08237737 -0.05932314 -0.003849569 -0.18351063 -0.20107095 -0.06315728
0.0059725093 -0.0233155 0.03516116 -0.19397083 0.10090365 -0.08887903 0.13539317 -0.021009525
0.032630574 0.10826504 0.014495332 -0.063719444 0.103299074 -0.3020165 0.09457212 0.09774399
0.017832652 0.09239674 0.07753874 -0.11605233 -0.065660216 -0.03893804 0.03876376 0.080699645
0.098345384 0.017873194 0.05007325 0.022836117 -0.23086882 -0.24720587 0.017230345 -0.0006356761
0.004479123 0.21859708 0.10873137 -0.26895267 -0.018032128 0.03318434 -0.06002287 0.10242942
0.12706749 0.09334782 0.047032766 0.020762252 -0.011842963 -0.05317695 0.038758393 0.035713613
-0.20603625 -0.09452782 0.020588502 -0.068584345 -0.2347586 -0.06139419 0.011971574 -0.064615354
-0.057358433 -0.03096636 -0.057218377 -0.06693917 0.031836495 -0.09137357 0.047103133 0.037354887
0.076031305 0.08301927 -0.031762633 -0.10307522 -0.27299246 -0.05218102 0.2147273 0.022457698
0.05711891 -0.016238088 -0.02582829 -0.3183988 -0.38958818 -0.104692936 -0.16230276 -0.0122426115
0.014636088 -0.12984775 -0.12558231 0.06980086 0.12906747 -0.09073945 -0.016045127 0.0037287562
0.033920247 0.03210758 -0.02644132 -0.0541892 0.08721869 0.10131703 -0.0062262653 0.11561836
-0.017750103 0.08966571 0.090495266 -0.33245826 0.08822126 -0.048683673 -0.0187381 0.0838908
-0.03912727 0.027926229 -0.027443126 -0.005027616 -0.2966682 -0.041488305 0.03020847 -0.012675925

fc2.bias f4 [10]
00000000: 1b68 dcbe 9303 25be 8d63 80be f99f b73e
00000010: 3f12 bb3e 299b 61bd 84d5 e3bc 7410 66bd
00000020: a7a1 953e a246 213c
-0.43048176 -0.16114645 -0.2507595 0.35864237 0.36537358 -0.055079613 -0.027811773 -0.056168035
0.29224893 0.0098435
